results/net_gnn_model_jit.pt (torch, 42808 bytes, 7 tensors)

weight f4 [64, 10]
0	0x3dbfbc29	0.093620606
1	0xbe5d32e3	-0.21601443
2	0x3d71e37c	0.059054837
3	0xbe7fcba5	-0.24980028
4	0x3de3a621	0.11115671
5	0x3d97cd03	0.0741215
6	0xbe5dc30c	-0.21656436
7	0xbe549340	-0.20759296
8	0xbe599968	-0.21249926
9	0x3e38933d	0.18024917
10	0xbe61658a	-0.2201139
11	0x3e3cff52	0.18456772
12	0x3da60947	0.08107238
13	0x3d885ef2	0.066587344
14	0x3dd59d4a	0.10430391
15	0x3da1858b	0.078867994
16	0x3db3441d	0.08753226
17	0x3e9b3a77	0.30318043
18	0xbe022682	-0.12710002
19	0x3e687dc9	0.22704233
20	0xbd9645b4	-0.073375136
21	0x3d2ee592	0.042699404
22	0xbeb12d7a	-0.34605008
23	0x3c02133e	0.007939158
24	0x3e84733f	0.25869176
25	0x3ce0a342	0.027421597
26	0xbcffc8ec	-0.031223737
27	0xbcdac0ce	-0.026703265
28	0xbed68f17	-0.41906044
29	0xbd4b990c	-0.049706504
30	0x3cc24db4	0.023718692
31	0x3e015002	0.12628177
32	0xbe86f0a4	-0.2635547
33	0x3e90ced4	0.28282797
34	0xbe9f4726	-0.3110897
35	0x3cda83cb	0.026674172
36	0xbe095aa7	-0.13413487
37	0xbea8c24a	-0.3296073
38	0xbd1c6894	-0.03818567
39	0x3e095054	0.13409549
40	0x3e853f84	0.2602502
41	0x3bc87c6b	0.0061183474
42	0x3e95d418	0.29263377
43	0x3e3711c0	0.17877865
44	0xbca8322e	-0.02053174
45	0xbcf99e17	-0.03047089
46	0x3ddf65c1	0.1090808
47	0x3ea98599	0.3310974
48	0x3d7eab21	0.06217492
49	0x3d46425a	0.04840312
50	0x3e631843	0.22177224
51	0x3cf5ed59	0.030020403
52	0x3eb08d19	0.3448265
53	0xbc100d67	-0.008792258
54	0xbe6839a5	-0.2267824
55	0x3ea55310	0.32289934
56	0x3ea33077	0.31872913
57	0x3e9dee7f	0.3084602
58	0x3eb3c814	0.35113585
59	0x3da92607	0.08259206
60	0x3ec8692f	0.3914275
61	0xbe95bb65	-0.29244533
62	0xbc46ab6d	-0.012125832
63	0xbe77617c	-0.24158281
64	0x3de5338e	0.11191474
65	0x3eae1def	0.34007213
66	0x3d3c5a7c	0.04598473
67	0x3e038ab6	0.12845883
68	0x3e8798a6	0.2648365
69	0x3e1cdec7	0.15319358
70	0x3e2442ad	0.1604106
71	0xbe80a0a2	-0.25122553
72	0xbe766cca	-0.24064937
73	0x3dc89a8d	0.09795103
74	0xbd8abdbe	-0.06774472
75	0xbe742a31	-0.2384422
76	0x3e72eb14	0.23722488
77	0x3d0aa30d	0.033846904
78	0x3c329658	0.010900103
79	0xbddc741d	-0.10764334
80	0xbb42ffb4	-0.0029754462
81	0xbe920d9f	-0.28526017
82	0x3e751f30	0.23937678
83	0xbe87f678	-0.26555228
84	0xbe97b218	-0.29628062
85	0x3e48f7d5	0.1962579
86	0xbda57372	-0.0807866
87	0x3e656429	0.2240149
88	0x3e571f09	0.21007933
89	0xbadbb8d0	-0.0016763452
90	0x3e3082c5	0.17237385
91	0x3e1b5db5	0.15172465
92	0xbe747922	-0.23874334
93	0x38a8ceb5	8.0493664e-05
94	0xbe3aa1cf	-0.18225788
95	0x3d9bc157	0.07605236
96	0x3e592ddf	0.21208905
97	0x3e5dcaf1	0.21659447
98	0xbd2c88a2	-0.04212249
99	0xbb5e4a09	-0.003391864
100	0x3d554b0e	0.05207353
101	0x3da75ab4	0.08171597
102	0xbc925021	-0.017860474
103	0x3e7276b5	0.23678096
104	0x3d620eb1	0.055189792
105	0x3e638795	0.22219689
106	0x3ea6a234	0.32545626
107	0x3e2ed1d1	0.17072226
108	0x3dd64925	0.1046317
109	0xbe0281c8	-0.1274482
110	0xbe8c1454	-0.2735926
111	0xbe73d940	-0.23813343
112	0x3de6a20c	0.11261377
113	0x3e5dcc60	0.21659994
114	0xbe24d062	-0.16095117
115	0x3e4cde1a	0.200066
116	0xbe057036	-0.13031086
117	0x3e4aaa46	0.19791517
118	0xbdbce106	-0.09222607
119	0x3e06ab6d	0.13151331
120	0x3e42386e	0.18966839
121	0x3ea005f1	0.31254533
122	0x3eb213bd	0.34780684
123	0x3e81b80a	0.25335723
124	0x3e860526	0.26175803
125	0xbc9f5b59	-0.019452738
126	0x3e9d7cbe	0.30759233
127	0xbe2368a0	-0.1595788
128	0x3e394bfe	0.18095395
129	0x3e811536	0.25211495
130	0x3eae8c20	0.34091282
131	0x3e0da7af	0.13833497
132	0xbd7aeb77	-0.061259713
133	0x3e009d7b	0.12560074
134	0xbce6bea9	-0.028167086
135	0x3dc60eb8	0.09670776
136	0xbdb68f75	-0.08914081
137	0xbdf463a1	-0.11933065
138	0x3e4bae88	0.19890797
139	0x3c9da476	0.01924346
140	0xbe81c609	-0.253464
141	0x3e909757	0.28240463
142	0xbda392ca	-0.07986982
143	0xbd8ee346	-0.06976943
144	0xbe0b290c	-0.13589877
145	0xbdc1c351	-0.09461082
146	0xbe964c7a	-0.29355222
147	0xbdbb01b9	-0.09131188
148	0xbdcac6e2	-0.09901215
149	0xbe1ff60a	-0.156212
150	0x3e3ade3f	0.18248843
151	0x3dba124d	0.09085522
152	0x3e8a8549	0.27054814
153	0xbda539dd	-0.08067677
154	0x3e475759	0.19466914
155	0x3edec2d0	0.43508005
156	0xbe057d84	-0.13036162
157	0xbdd905ff	-0.10596847
158	0x3e54991f	0.20761536
159	0x3ed23929	0.41059235
160	0xbe4c7b3f	-0.1996889
161	0x3e17d4d2	0.14827278
162	0xbcbf0b06	-0.023320686
163	0xbe5515ea	-0.20809141
164	0xbe140c03	-0.14457707
165	0x3e954d67	0.29160616
166	0x3b6c8224	0.0036088312
167	0x3e523ff6	0.20532212
168	0xbd6b9987	-0.057519462
169	0xbd01978a	-0.03163866
170	0xbe23b676	-0.15987572
171	0x3e452f23	0.19256262
172	0xbdf425ff	-0.1192131
173	0xbdfda564	-0.123850614
174	0xbe08efee	-0.13372776
175	0xbe99f6b3	-0.3007103
176	0xbe825ae5	-0.25459972
177	0x3da3ba64	0.079945356
178	0x3e844230	0.25831747
179	0xbd36adb6	-0.044599257
180	0x3e4a5aae	0.19761154
181	0xbcd6b212	-0.026207957
182	0x3e5f3bc8	0.21800148
183	0xbe1e6c81	-0.15471078
184	0x3db70fec	0.08938584
185	0x3e956c71	0.29184297
186	0x3ec0a96a	0.37629253
187	0x3f151468	0.5823426
188	0x3ee8a8df	0.45441338
189	0x3dded057	0.108795814
190	0xbc1dc85f	-0.009630292
191	0xbcc035d7	-0.023463173
192	0x3e70545e	0.23469684
193	0xbe236ca4	-0.15959412
194	0x3dce221e	0.10065101
195	0x3def3268	0.11679536
196	0x3e9319a1	0.2873049
197	0x3eac035f	0.33596322
198	0x3da3a2d8	0.07990044
199	0xbe213612	-0.15743282
200	0x3eaa9610	0.33317614
201	0xbe1f6e82	-0.15569499
202	0x3c924339	0.01785432
203	0x3e246454	0.16053897
204	0xbe65fa40	-0.22458744
205	0x3de6ae80	0.11263752
206	0xbe92b4c8	-0.2865355
207	0x3ece1ac9	0.4025481
208	0x3e32c876	0.17459282
209	0x3d40b303	0.04704572
210	0xbe80ad32	-0.25132138
211	0x3e58b838	0.21164024
212	0x3e31b546	0.17354307
213	0x3e02ca0f	0.12772392
214	0x3e5de54d	0.21669503
215	0x3e0f8a86	0.14017686
216	0x3d94c942	0.072649494
217	0x3e9ede78	0.31029105
218	0xbd263b30	-0.04058379
219	0xbda33b51	-0.07970298
220	0x3c41b487	0.011822826
221	0xbd8a4c72	-0.06752862
222	0x3e5d55f0	0.21614814
223	0xbd6c3fb0	-0.057677925
224	0x3e1f8adb	0.15580313
225	0xbec45831	-0.38348535
226	0x3e1807c4	0.14846712
227	0x3e02bcb5	0.12767299
228	0xbe9ac88f	-0.3023114
229	0xbde6391a	-0.1124136
230	0x3ed30fb2	0.41222912
231	0x3c421dfd	0.01184797
232	0x3e6207ac	0.22073239
233	0xbd635838	-0.055504054
234	0x3c017360	0.007901043
235	0xbddce9b7	-0.10786765
236	0xbb2633c3	-0.0025360442
237	0x3e0fc586	0.14040193
238	0x3de8c16b	0.113650165
239	0xbe4cda1d	-0.20005079
240	0x3df2a019	0.118469425
241	0x3e919ad8	0.2843845
242	0xbdcab303	-0.09897425
243	0x3d863066	0.065522
244	0x3e907578	0.28214622
245	0xbe54cf2e	-0.20782158
246	0x3e9bfdac	0.30466974
247	0xbeb204d7	-0.34769318
248	0xbea44c20	-0.3208933
249	0xbdba1395	-0.09085766
250	0x3dbf95eb	0.093547665
251	0xbe277857	-0.163545
252	0xbe989c61	-0.29806808
253	0x3e6e4231	0.23267438
254	0xbe0346b0	-0.12819934
255	0xbe27575a	-0.16341916

bias f4 [64]
0	0x3e85957c	0.2609061
1	0xbb0e000d	-0.002166751
2	0xbede7059	-0.4344509
3	0xbc80d143	-0.015724784
4	0x3e1c9ccd	0.1529419
5	0x3ec3af2b	0.3821958
6	0xbde33623	-0.1109431
7	0x3e1b654a	0.15175357
8	0xbe4fd5ec	-0.20296448
9	0xbaf07e84	-0.0018348251
10	0x3e954783	0.29156122
11	0xbcf9e28c	-0.030503534
12	0x3e7ac3c1	0.24488737
13	0x3e9f669d	0.31132975
14	0xbe96e21e	-0.2946939
15	0xbe1f606a	-0.15564123
16	0x3e9db1cc	0.3079971
17	0xbe81739e	-0.2528352
18	0x3ef810d2	0.48450333
19	0xbd2ee85e	-0.04270207
20	0xbe3f0620	-0.1865468
21	0x3e386408	0.18006909
22	0x3e0576b5	0.13033564
23	0x3d9a02ad	0.075200416
24	0x3e5c4a30	0.21512675
25	0x3e0a4ce3	0.13505892
26	0x3c950c0e	0.018194225
27	0xbe4319af	-0.19052766
28	0x3edaa699	0.4270523
29	0xbe9151e3	-0.28382787
30	0xbe7acc03	-0.24491887
31	0xbdd2b354	-0.102881104
32	0x3cbc389e	0.022976216
33	0x3e4c287b	0.19937317
34	0x3db50bae	0.08840118
35	0x3bde4354	0.0067829285
36	0x3ea98d2e	0.33115524
37	0x3d55e21e	0.052217595
38	0xbd561aca	-0.05227164
39	0xbe39e630	-0.18154216
40	0x3d8b0380	0.06787777
41	0xbc81dd5b	-0.01585262
42	0xbeb1bad3	-0.34712848
43	0xbe9d8444	-0.30764973
44	0xbe85b9c2	-0.26118284
45	0x3e6cf40a	0.23139969
46	0xbe2ae7f3	-0.16690044
47	0x3e5c0f11	0.21490122
48	0x3ea5748d	0.32315484
49	0x3bf0e14d	0.0073510767
50	0xbd129827	-0.035789635
51	0xbe6741e0	-0.22583723
52	0x3d2c8c90	0.04212624
53	0xbe7a9266	-0.24469909
54	0xbc5ff154	-0.013668377
55	0xbdfb91a4	-0.12283638
56	0x3d0064a9	0.031345997
57	0x3dee208d	0.11627302
58	0xbdd64c3f	-0.104637615
59	0x3e0194cb	0.12654416
60	0xbe9829e9	-0.29719475
61	0xbe56f963	-0.20993571
62	0xbdda515c	-0.10660049
63	0x3dde86ae	0.10865532

weight f4 [64, 10]
0	0xbe522006	-0.20520028
1	0xbe13dd97	-0.14439999
2	0x3e06c939	0.13162698
3	0xbc535768	-0.012899257
4	0xbbc28ab6	-0.005936946
5	0xbe10a293	-0.14124517
6	0x3c1a2703	0.009408715
7	0x3e4e3206	0.2013627
8	0x3dcdd379	0.10050101
9	0x3e984f79	0.29748133
10	0xbe616ac2	-0.22013381
11	0x3dfb6583	0.12275221
12	0xbe82b042	-0.255251
13	0x3c019d95	0.007911106
14	0xbceade4a	-0.028670449
15	0x3e161834	0.1465767
16	0xbe3a3bdd	-0.18186899
17	0xbe05735f	-0.13032292
18	0x3e115760	0.14193487
19	0xbdd22c7e	-0.102623925
20	0xbdb07a6d	-0.08617101
21	0x3e68e77b	0.22744553
22	0xbe73e0aa	-0.23816171
23	0x3e178277	0.14795862
24	0xbc9e547f	-0.0193274
25	0xbe950527	-0.29105493
26	0x3e3523a6	0.1768938
27	0xbf062a7a	-0.52408564
28	0xbed37bc2	-0.41305357
29	0xbe834d5a	-0.25644952
30	0x3d326130	0.043549716
31	0x3e13e1ec	0.14441651
32	0xba302bac	-0.0006720375
33	0x3e0f388d	0.13986416
34	0x3e620f08	0.22076046
35	0xbeee92a7	-0.46596262
36	0xbdc6ecdf	-0.09713148
37	0x3e0d1252	0.1377652
38	0xbe6ee08f	-0.2332785
39	0xbe89e4b6	-0.26932305
40	0x3f21b6de	0.6316966
41	0x3ddda6a5	0.108228005
42	0xbd726d85	-0.059186477
43	0xbe70d362	-0.23518136
44	0xbe99683f	-0.29962346
45	0x3f07fd61	0.53121
46	0x3bcfc16f	0.0063401978
47	0x3f34232e	0.7036618
48	0x3ddadc32	0.1068653
49	0x3e816e07	0.25279257
50	0x3d9a48c6	0.07533412
51	0xbe2b8aec	-0.16752213
52	0x3e675671	0.22591569
53	0xbead5ee1	-0.3386145
54	0x3e2c5391	0.16828753
55	0x3e766ddf	0.2406535
56	0xbe7de5ea	-0.24794737
57	0xbded9e04	-0.11602405
58	0x3e314307	0.17310725
59	0xbdbee471	-0.093209155
60	0x3e417588	0.18892491
61	0x3e5f4c39	0.2180642
62	0xbe92d464	-0.28677666
63	0x3c765425	0.01503471
64	0xbd07648f	-0.033054885
65	0x3ca3fdf7	0.02001856
66	0x3e3ddb6c	0.18540734
67	0x3e31d84f	0.17367671
68	0x3eb9b14d	0.36268082
69	0x3eb680d1	0.35645154
70	0x3c0c11f8	0.008549206
71	0xbda4c759	-0.08045835
72	0x3a7d4e92	0.0009662892
73	0x3d38788e	0.045036845
74	0x3c897d75	0.016783455
75	0x3e90cbc6	0.28280467
76	0xbd0dced3	-0.03462107
77	0xbe0f4a9d	-0.13993306
78	0xbd894ef3	-0.067045115
79	0xbc8801e7	-0.01660247
80	0x3ea5fb4f	0.32418296
81	0xbe0c9ea2	-0.13732389
82	0x3bc88741	0.006119639
83	0xbe6c9e7d	-0.23107333
84	0x3df8bf2d	0.12145839
85	0xbe84d9b3	-0.2594734
86	0xbe1164ec	-0.14198655
87	0x3d63ecb9	0.05564568
88	0x3bcee503	0.0063139214
89	0x3dfec65f	0.1244018
90	0xbd779563	-0.0604452
91	0x3e2c4d70	0.16826415
92	0xbe9599cb	-0.29218897
93	0xbe006b1d	-0.1254086
94	0x3e1e69f9	0.15470113
95	0xbe6a0021	-0.22851612
96	0xbe4ad8dc	-0.19809288
97	0x3d80652e	0.062692985
98	0xbc80501d	-0.015663201
99	0x3e477977	0.19479929
100	0x3e58bb35	0.21165164
101	0xbea53bfd	-0.3227233
102	0xbe3457f0	-0.1761167
103	0x3e296650	0.16542935
104	0xbe7a1d36	-0.24425206
105	0x3e55595a	0.20834866
106	0x3eb33fea	0.350097
107	0x3e89540e	0.2682194
108	0x3f0a48dc	0.54017425
109	0xbe9782a2	-0.29591852
110	0x3e4a0eca	0.19732204
111	0x3e2a1f2d	0.16613455
112	0x3dfb0336	0.12256472
113	0xbe5c8973	-0.21536808
114	0x3e936148	0.28785157
115	0xbe81a2e6	-0.25319594
116	0xbdf16beb	-0.11788162
117	0x3e40468c	0.18776911
118	0xbd588227	-0.052858498
119	0xbe03ceaf	-0.12871812
120	0x3ef5a755	0.47979227
121	0x3e92dbab	0.28683218
122	0xbd8e8458	-0.06958836
123	0xbe15a1f9	-0.14612569
124	0xbe709d9d	-0.23497625
125	0xbde00272	-0.109379664
126	0x3e36bb67	0.17844926
127	0x3ee73818	0.45159984
128	0x3eef93c7	0.46792433
129	0x3e1ddd62	0.15416482
130	0xbe8cf6f6	-0.27532166
131	0x3d4d4d87	0.050122764
132	0xbda7ac82	-0.081872
133	0x3e973d53	0.29538974
134	0xbd39d3e3	-0.045368087
135	0xbd5f853d	-0.054570425
136	0x3eacbcc4	0.33737767
137	0x3e325e52	0.17418793
138	0x3ea5f4a4	0.32413208
139	0x3e813398	0.25234675
140	0xbec4419c	-0.38331306
141	0x3b9f151e	0.0048548123
142	0xbd92b6f0	-0.07163799
143	0xbd748971	-0.059701387
144	0xbd0c78b7	-0.03429481
145	0x3b17448c	0.0023081629
146	0xbdb0cfd7	-0.08633392
147	0xbc183365	-0.009289597
148	0xbeb1ef7b	-0.34753022
149	0xbe3b4fbc	-0.18292135
150	0x3ed686ad	0.41899624
151	0x3e7688f8	0.24075687
152	0x3e967587	0.2938654
153	0x3e3ac9cd	0.18241043
154	0x3e8d4c86	0.27597445
155	0x3a75b571	0.0009373045
156	0xbdcc08d9	-0.09962625
157	0x3e9797a8	0.29607892
158	0x3dd0b235	0.1019024
159	0xbd36525e	-0.044512145
160	0xbc69ffa6	-0.014282143
161	0xbe893e58	-0.26805377
162	0x3e595a59	0.21225871
163	0x3e6033be	0.21894738
164	0xbe9774ba	-0.29581243
165	0xbe2c65aa	-0.16835657
166	0xbe16acbd	-0.14714332
167	0x3d0536ca	0.032522954
168	0xbdecfe55	-0.115719475
169	0x3ced253e	0.028948423
170	0xbf07af49	-0.5300184
171	0x3e0494fe	0.12947461
172	0xbde3982a	-0.11113007
173	0xbd6b3833	-0.057426643
174	0xbe546501	-0.20741655
175	0x3d1c68e9	0.038185988
176	0x3e725580	0.23665428
177	0xbf1d7596	-0.61507547
178	0x3e2c05c9	0.16799082
179	0xbe0f77a8	-0.14010489
180	0x3f38873e	0.72081363
181	0x3c150a83	0.0090967445
182	0x3ec6d85f	0.38836953
183	0xbd706c29	-0.0586969
184	0xbe9815c1	-0.29704097
185	0x3e8eb7ae	0.2787451
186	0x3ede79d7	0.4345233
187	0x3f349452	0.7053882
188	0x3f1e2048	0.6176801
189	0xbd9933a6	-0.07480554
190	0x3e850b6a	0.2598527
191	0xbba1fb6b	-0.0049433014
192	0x3ea1e56f	0.31620356
193	0xbdae29c6	-0.085040614
194	0x3d672835	0.05643483
195	0x3db08037	0.08618205
196	0xbe729b23	-0.23691992
197	0x3f09f361	0.5388699
198	0x3edffa9e	0.43745893
199	0x3ddef531	0.1088661
200	0xbdd2b343	-0.10288098
201	0xbdd0fac1	-0.102040775
202	0x3da43c70	0.0801934
203	0x3e42a6a9	0.19008888
204	0xbe2027ea	-0.15640226
205	0x3e7413f6	0.2383574
206	0x3e778936	0.24173436
207	0xbd18caeb	-0.037302893
208	0x3e819de7	0.25315782
209	0xbd9e21fa	-0.07721324
210	0xbe869651	-0.26286557
211	0xbe737e2b	-0.23778598
212	0xbd93baa4	-0.07213333
213	0xbe72fbd6	-0.2372888
214	0x3e8104ff	0.25199124
215	0x3e5ed4d6	0.21760878
216	0x3e8c78d0	0.27435923
217	0xbe6ece2a	-0.23320833
218	0x3e80142b	0.25015387
219	0xbe778ff4	-0.24176008
220	0xbe9ea6cd	-0.30986634
221	0x3e88df83	0.26733026
222	0x3df2fffc	0.118652314
223	0x3e91ebee	0.28500313
224	0xbe142156	-0.14465842
225	0xbecdd78f	-0.4020352
226	0xbe992071	-0.29907563
227	0xbedafa6a	-0.42769176
228	0xbe8d7893	-0.27631053
229	0xbec93f4e	-0.3930611
230	0x3f10b5df	0.56527513
231	0x3e671087	0.22564898
232	0xbc82a6d5	-0.015948692
233	0x3cc81b50	0.024427086
234	0xbc3bec8d	-0.011469972
235	0x3c8b04e6	0.01697011
236	0x3d91046f	0.07080924
237	0x3e7fd74e	0.24984476
238	0x3f06760a	0.52523863
239	0x3ecb4aa6	0.3970539
240	0xbe96f55c	-0.2948407
241	0xbe63b321	-0.22236301
242	0xbdd6efea	-0.10494979
243	0x3e12b462	0.14326623
244	0x3e727498	0.2367729
245	0xbee55bbd	-0.44796553
246	0x3e35aaff	0.17741011
247	0xbea820bb	-0.3283747
248	0x3e48aa1d	0.19596143
249	0x3df97fa2	0.12182547
250	0x3ea92d30	0.33042288
251	0x3d2469fa	0.04014013
252	0xbdf39224	-0.118931085
253	0x3c05b49f	0.008160739
254	0x3dbe9e4d	0.09307537
255	0x3e94d426	0.29068106

weight f4 [64, 64]
0	0xbdac7dea	-0.08422454
1	0x3db0a351	0.086249
2	0x3c4aee2d	0.012385887
3	0xbcf06532	-0.029345129
4	0xbd046f9c	-0.032333
5	0xbd313a83	-0.04326869
6	0x3d2abfef	0.04168695
7	0xbd90a73e	-0.07063149
8	0xbd8b411e	-0.067995295
9	0x3d41c0cb	0.047303002
10	0xbdee9e29	-0.116512604
11	0xbdda5173	-0.106600665
12	0xbe13e512	-0.14442852
13	0xbdbfd9ce	-0.09367715
14	0x3bd7c04e	0.006584204
15	0x3db027dd	0.08601353
16	0xbb7a5a47	-0.0038200782
17	0xbb663afe	-0.0035130377
18	0x3c987227	0.01860912
19	0xbd23d2f8	-0.039996117
20	0x3df04117	0.11731165
21	0x3d2417e5	0.04006185
22	0xbda9524b	-0.08267649
23	0xbdea198d	-0.11430655
24	0x3dc18c39	0.094505735
25	0xbd02d5e1	-0.031942252
26	0xbc54b78a	-0.012983212
27	0x3d95b2e2	0.0730951
28	0xbc79d104	-0.015247587
29	0xbdea3e16	-0.11437623
30	0xbc16fc24	-0.009215388
31	0x3d4595bc	0.0482385
32	0xbc931224	-0.017952986
33	0x3c1e1587	0.009648687
34	0xbdcf426d	-0.101200916
35	0x3d5e7e6e	0.05431979
36	0xbdce744a	-0.10080774
37	0x3d832512	0.06403555
38	0x3d6b2854	0.057411507
39	0xbe0b4735	-0.13601382
40	0x39acda00	0.0003296882
41	0x3cfc2da4	0.030783482
42	0x3d8895ee	0.06669222
43	0x3db4da64	0.08830717
44	0x3d9f9096	0.077912495
45	0x3cc6c913	0.024265802
46	0x3d043d51	0.03228504
47	0x3d7cb0d0	0.06169206
48	0xbe163c6b	-0.14671485
49	0xbbac559f	-0.0052592303
50	0xbe08f009	-0.13372816
51	0x3dc956cd	0.09831009
52	0x3c038952	0.008028345
53	0x3dbbdda8	0.09173137
54	0xbc34bcba	-0.011031324
55	0x3d2b0963	0.041757
56	0xbda6cfdb	-0.08145114
57	0xbe0521ba	-0.13001147
58	0x3d2cb945	0.042168874
59	0xbca40b97	-0.020025058
60	0xbd070b3e	-0.032969706
61	0xbe000d7e	-0.12505147
62	0xbdf567ea	-0.11982711
63	0x3da70590	0.08155358
64	0x3da7ccae	0.081933364
65	0xbdd711e4	-0.10501459
66	0xbd8a4100	-0.06750679
67	0x3d2d4010	0.042297423
68	0x3d0994ec	0.03358929
69	0xbdfbcbd2	-0.12294735
70	0xbd615694	-0.055014208
71	0x3d6b3da8	0.057431847
72	0xbdda99d8	-0.106738746
73	0x3d837e76	0.06420605
74	0x3decc9e6	0.115619466
75	0x3d0d0da0	0.034436822
76	0xbd7a8870	-0.061165273
77	0xbdfc9f42	-0.123350635
78	0xbda85560	-0.08219409
79	0xbdbdd6e6	-0.09269504
80	0x3df03a34	0.11729851
81	0xbdb1c04c	-0.08679256
82	0x3b1aa180	0.0023594797
83	0xbdfec036	-0.12439005
84	0x3c651a40	0.013983309
85	0xbda4cfde	-0.0804746
86	0xbdf8e3e2	-0.1215284
87	0xbdd78ca0	-0.10524869
88	0x3d8a3b1a	0.06749554
89	0xbd544b34	-0.05182953
90	0x3d12cff4	0.03584285
91	0x3cbb6888	0.022876993
92	0xbd1d8054	-0.03845246
93	0x3da38b14	0.079855114
94	0x3d4c8b80	0.049937725
95	0x3db4d96e	0.08830534
96	0x38ac2800	8.20905e-05
97	0x3d2cc37c	0.042178616
98	0xbc6210f0	-0.0137979835
99	0xbd83ed82	-0.064417854
100	0x3ccd9fc8	0.025100604
101	0xbd012e98	-0.031538576
102	0xbdb3e72e	-0.087843284
103	0x3b90fd60	0.004424736
104	0x3cbcf250	0.023064762
105	0x3cd20280	0.025635958
106	0x3d076a34	0.033060268
107	0xbd42e200	-0.04757881
108	0x3debef66	0.11520271
109	0xbd1e1694	-0.03859575
110	0xbd8b46ae	-0.068005905
111	0x3ded2bc2	0.11580612
112	0x3dbaccba	0.0912108
113	0x3d9c7734	0.07639924
114	0x3d5a05b0	0.05322808
115	0xbcac8988	-0.021061674
116	0xbd3de410	-0.046360075
117	0xbd26df20	-0.040740132
118	0xbddd747a	-0.10813232
119	0xbd5e2f60	-0.0542444
120	0x3d060748	0.032721788
121	0x3deaecac	0.11470923
122	0x3d1bba3c	0.038019404
123	0xbdd08d24	-0.101831704
124	0xbca9ed00	-0.020742893
125	0xbdedef04	-0.11617854
126	0xbc94e590	-0.01817587
127	0x3d083d54	0.033261612
128	0xbda3e98a	-0.080035284
129	0x3c7aa746	0.01529867
130	0x3da4ec44	0.080528766
131	0xbdf66edb	-0.12032863
132	0x3dccf7ab	0.100081764
133	0x3da5ab95	0.08089367
134	0x3cb651e0	0.022255838
135	0xbdcd28b2	-0.10017528
136	0xbd8a5a7a	-0.06755538
137	0x3d918be5	0.07106761
138	0xbe087aa4	-0.13328034
139	0x3cbc5cfb	0.022993555
140	0x39daaed5	0.0004171046
141	0xbda87d52	-0.08227028
142	0x3cadee11	0.021231683
143	0xbd970de7	-0.073756985
144	0xbdca6ed5	-0.09884421
145	0xbc0c5824	-0.008565936
146	0x3e524c81	0.20536996
147	0x3c27afeb	0.010234813
148	0x3d9be237	0.076115064
149	0xbd8dcec0	-0.069242
150	0xbc197321	-0.009365828
151	0xbca00ee9	-0.01953836
152	0x3daeb27b	0.08530136
153	0xbd7d8131	-0.061890785
154	0xbcdf2d34	-0.027243234
155	0xbc041fce	-0.008064223
156	0x3d9903e1	0.07471443
157	0xbcbad396	-0.02280597
158	0xbd6a4220	-0.057191968
159	0x3d845ebe	0.06463383
160	0x3d5ec963	0.054391276
161	0x3de470c6	0.11154322
162	0x3c076338	0.008263402
163	0x3c496e82	0.0122944135
164	0x3d064ed4	0.03279002
165	0x3de5d71f	0.11222672
166	0x3d9d9a2d	0.07695422
167	0xbdd0ef83	-0.10201933
168	0x3de2c732	0.1107315
169	0x3d1e26b2	0.03861112
170	0xbdc6cbaf	-0.09706818
171	0xbd9d8f8b	-0.07693394
172	0xbe04e317	-0.12977253
173	0xbdabe2b6	-0.08392851
174	0x3da1a2a0	0.078923464
175	0xbce9167a	-0.0284531
176	0xbd1845dd	-0.037176
177	0xbe0e9127	-0.13922559
178	0x3cb83127	0.022484375
179	0xbd83223f	-0.06403016
180	0x3db1d2df	0.086827986
181	0x3cd493aa	0.025949318
182	0x3c5e786a	0.013578514
183	0xbd3cd8fd	-0.046105374
184	0x3cf44fbc	0.029823177
185	0x3da7f89d	0.08201716
186	0x3dcd5b8f	0.10027229
187	0xbc5c7a14	-0.01345684
188	0x3db7197f	0.0894041
189	0x3dbb9533	0.09159317
190	0xbd8cb1dd	-0.06869862
191	0x3d7a2528	0.06107059
192	0xbdb24682	-0.087048545
193	0xbdf892e9	-0.12137396
194	0x3c150992	0.00909652
195	0x3d947b8f	0.072501294
196	0xbd419850	-0.047264397
197	0xbc08fb1d	-0.008360651
198	0xbe25da72	-0.16196612
199	0xbd62be79	-0.05535743
200	0x3d9822a5	0.07428483
201	0xbdd730b9	-0.1050734
202	0xbd039ac3	-0.032130014
203	0xbdd48907	-0.103776984
204	0xbd9f2d73	-0.077723406
205	0xbd7f6281	-0.0623498
206	0xbd954650	-0.07288802
207	0xbc0056c2	-0.007833185
208	0xbd8d9467	-0.06913071
209	0xbe29e54e	-0.16591379
210	0x3e084055	0.1330579
211	0xbd62a7d4	-0.055335835
212	0xbd94c297	-0.072636776
213	0x3d8bd88c	0.068284124
214	0x3d90a7ea	0.07063277
215	0xbd9f539c	-0.07779619
216	0xbd880ed6	-0.06643455
217	0x3d5f1ffd	0.054473866
218	0x3d0edb9e	0.034877412
219	0xbe0f02c7	-0.13965903
220	0x3ebf98e5	0.37421337
221	0x3c23e17d	0.010002491
222	0xbd3e2ab0	-0.04642743
223	0xbe195ba7	-0.14976369
224	0xbe14ee88	-0.14544117
225	0xbe0ed630	-0.13948894
226	0xbe0fff6f	-0.14062284
227	0xbe2706d5	-0.163112
228	0x3dbbe22e	0.09174
229	0x3d98360c	0.074321836
230	0xbd8b7b1a	-0.06810589
231	0xbcc98e39	-0.02460395
232	0x3b9485a0	0.004532531
233	0x3eba9f61	0.3644972
234	0xbe0c6aee	-0.13712665
235	0x3d91f8bc	0.071275204
236	0xbde28fbd	-0.11062572
237	0xbe45604c	-0.19275016
238	0xbe3cb7ed	-0.18429537
239	0xbdd76c17	-0.105186634
240	0x3eab607d	0.33472052
241	0xbe0d9b8d	-0.13828869
242	0xbe0d0435	-0.13771136
243	0xbcad9ec4	-0.02119387
244	0xbe003871	-0.1252153
245	0x3d61b683	0.055105697
246	0xbda3ae87	-0.07992273
247	0xbdaf0674	-0.08546153
248	0x3d7cdab7	0.06173202
249	0xbd4c0967	-0.049813654
250	0xbddbd5f4	-0.10734168
251	0xbcc14747	-0.023593558
252	0xbdaaa0e2	-0.08331467
253	0x3c959001	0.018257143
254	0xbda80348	-0.08203751
255	0x3d5b21c5	0.053499002

bias f4 [64]
0	0xbd961a44	-0.073292285
1	0x3dbbb5b8	0.091655195
2	0x3dc211e4	0.094760686
3	0xbd91df41	-0.071226604
4	0x3dfc650c	0.12323961
5	0xbe835b17	-0.25655434
6	0xbd50659a	-0.050878145
7	0x3cd21176	0.025643092
8	0x3e86c37a	0.26321012
9	0xbd0333ab	-0.032031696
10	0x3e3b5005	0.18292244
11	0x3cce8aa6	0.025212597
12	0x3deaeea4	0.11471298
13	0x3e87cef2	0.26525074
14	0xbc80fdbe	-0.015745994
15	0xbe66abb0	-0.22526431
16	0x3c27f0d2	0.010250287
17	0xbdc1d515	-0.0946447
18	0x3d9fb341	0.07797862
19	0x3d811d3d	0.06304405
20	0xbca089f1	-0.019597026
21	0xbd88abf1	-0.0667342
22	0x3e558e2f	0.2085502
23	0x3c6bdb04	0.014395479
24	0xbddfc0da	-0.109254554
25	0x3e092dc4	0.13396364
26	0x3e45d3e2	0.19319108
27	0x3d80e174	0.06293002
28	0xbdaa71eb	-0.083225094
29	0x3d03cb58	0.032176346
30	0x3ddc09da	0.107440665
31	0xbba93780	-0.005164087
32	0xbe1067d7	-0.14102112
33	0x3d462efb	0.048384648
34	0xbbb961cf	-0.0056574116
35	0xbd2e9cc7	-0.042629983
36	0xbde18e64	-0.11013487
37	0x3d695653	0.05696709
38	0x3e0ccc78	0.13749874
39	0xbd5a7fca	-0.053344525
40	0xbd94b652	-0.07261337
41	0x3d08721f	0.03331196
42	0x3dc1ce43	0.094631694
43	0x3d8c2457	0.06842869
44	0xbdf609ba	-0.12013574
45	0x3d5a6e03	0.05332757
46	0x3e1a9f38	0.150998
47	0x3e1fc20c	0.15601367
48	0x3e1a7b50	0.15086102
49	0x3d32863a	0.04358504
50	0x3e84d7e4	0.2594596
51	0x3def7a9c	0.11693308
52	0xbdfca2ae	-0.12335716
53	0xbd924d94	-0.07143703
54	0xbe2b7fa7	-0.16747914
55	0x3e4e53f9	0.2014922
56	0xbd2b6ac0	-0.04184985
57	0xbda427db	-0.08015414
58	0xbe022c31	-0.1271217
59	0x3e098ef2	0.13433436
60	0xbdd33001	-0.103118904
61	0x3dcdb7e8	0.10044843
62	0xbd8c6629	-0.06855423
63	0x3d20d2cf	0.039263543

weight f4 [64, 64]
0	0x3d9d0578	0.07667059
1	0xbdf98b2c	-0.12184748
2	0x3dc9b162	0.09848286
3	0x3ded857e	0.11597727
4	0xbd7f4258	-0.06231913
5	0xbd6832c3	-0.056689035
6	0x3d3d2e81	0.046186928
7	0x3db6b315	0.08920876
8	0x3db9d90e	0.09074603
9	0xbddf377f	-0.10899257
10	0x3bca625d	0.0061762766
11	0x3de4fc9b	0.11180993
12	0xbce548c6	-0.027988803
13	0xbdd0a666	-0.10187988
14	0x3d1ceed2	0.038313694
15	0xba70a08f	-0.00091791985
16	0x3d131005	0.03590395
17	0x3ce769b4	0.028248645
18	0x3d1e415f	0.03863656
19	0x3bec4348	0.007210169
20	0x3d359ccc	0.044338986
21	0xbc7f999c	-0.015600588
22	0x3d8c9d8a	0.06865986
23	0x3dc8633b	0.09784552
24	0x3ce75bf4	0.028242089
25	0x3db8305f	0.08993601
26	0x3db47bf3	0.08812704
27	0x3cf46a0e	0.029835727
28	0xbddfb38c	-0.10922918
29	0xbd4b63f8	-0.049655885
30	0xbd7aae38	-0.061201304
31	0xbc43d454	-0.011952478
32	0xbdb084c7	-0.08619075
33	0xbd1fa729	-0.038977776
34	0x3e095b15	0.13413651
35	0x3da72a97	0.0816242
36	0x3d3aa297	0.045565214
37	0xbd5098ab	-0.050926846
38	0xbcaba5eb	-0.02095314
39	0xbd711970	-0.05886215
40	0xbdacbae2	-0.084340826
41	0xbc411dc2	-0.01178688
42	0xbca9c144	-0.020722039
43	0x3d5c2496	0.05374583
44	0xbc170b30	-0.009218976
45	0xbd28f11e	-0.041245572
46	0xbd448982	-0.0479827
47	0xbd8d9815	-0.06913773
48	0x3e150363	0.14552073
49	0x3db5fc84	0.08886054
50	0x3d3c350d	0.04594903
51	0x3dcc4f3a	0.09976049
52	0xbd9dec21	-0.07711054
53	0x3dab128c	0.08353147
54	0x3dd0ab70	0.10188949
55	0x3c8f4078	0.017486796
56	0xbda4583c	-0.08024642
57	0x390a45aa	0.00013186657
58	0xbbb0c8c8	-0.0053950287
59	0x3d25e0b9	0.040497515
60	0xbd499136	-0.04921075
61	0xbda23f09	-0.07922179
62	0xbd18cd40	-0.037305117
63	0xbde89b53	-0.11357751
64	0xbdc34d7c	-0.09536263
65	0x3dbf8be6	0.093528554
66	0xbd623384	-0.05522491
67	0xbd87af3a	-0.06625219
68	0xbd67d1c8	-0.056596547
69	0x3dd010aa	0.101594284
70	0x3cde5740	0.027141213
71	0xbbbd4720	-0.005776301
72	0x3dc99fb2	0.098449126
73	0x3b1678c0	0.0022960156
74	0xbddefed2	-0.10888447
75	0x3b89dd80	0.004207313
76	0x3d7a5538	0.061116427
77	0x3df40ade	0.11916135
78	0xbdaf5288	-0.085606635
79	0xbd385140	-0.04499936
80	0x3dc006ec	0.0937632
81	0x3d130dc4	0.0359018
82	0xbdaa79cc	-0.08324012
83	0xbc6a0a70	-0.014284715
84	0xbca5d178	-0.020241484
85	0xbd764090	-0.060120165
86	0xbdf7df24	-0.121031076
87	0xbd230c8c	-0.039806888
88	0xbc079b00	-0.008276701
89	0x3d7cb2f4	0.0616941
90	0x3c448ec0	0.011996925
91	0xbd93bc68	-0.0721367
92	0xbd95e8d8	-0.07319802
93	0xbd9d9cb0	-0.076959014
94	0xbddd6606	-0.10810475
95	0xbdd7dd72	-0.10540284
96	0xbdec9614	-0.11552063
97	0xbdca6676	-0.09882824
98	0x3d04fb80	0.03246641
99	0x3dd6dd5c	0.1049144
100	0xbdb826ca	-0.089917734
101	0xbd2726ac	-0.040808365
102	0x3da2cf42	0.079496875
103	0xbd9403b8	-0.07227272
104	0x3dfdbe7a	0.12389846
105	0xbdbd9630	-0.092571616
106	0x3cfc1e18	0.030776069
107	0xbde6b404	-0.11264804
108	0x3df5f370	0.12009323
109	0x3d663760	0.056205153
110	0xbd784b10	-0.06061846
111	0xbdbf246a	-0.09333117
112	0xbd7d2120	-0.06179917
113	0xbd8e6ea2	-0.06954695
114	0xbd20281c	-0.03910075
115	0xbd04a22c	-0.03238122
116	0xbd30523c	-0.043047175
117	0x3cb73dd0	0.022368342
118	0xbdd0f6b6	-0.102033064
119	0xbde0f82e	-0.109848365
120	0x3de2225c	0.1104171
121	0x3dcac350	0.09900534
122	0x3d9123a8	0.07086879
123	0x3d672798	0.056434244
124	0x3d989266	0.07449798
125	0x3d8c6886	0.06855874
126	0xbdc42f32	-0.09579314
127	0xbdd34258	-0.103153884
128	0x3ccb1c68	0.024793819
129	0xbd88e136	-0.066835806
130	0x3cc8771b	0.024470856
131	0xbd3579ca	-0.0443056
132	0xbd9bebf9	-0.076133676
133	0x3dc9b7dd	0.09849522
134	0xbe16bd99	-0.14720763
135	0xbcaaa943	-0.020832663
136	0x3db9cb5f	0.09071993
137	0x3df47f0b	0.11938294
138	0x3d96e0a4	0.073670655
139	0xbdab3ef9	-0.083616205
140	0x3b9a5da8	0.0047108717
141	0xbd533500	-0.051564217
142	0x3d37f594	0.044911936
143	0xbdafa638	-0.085766256
144	0x3b8d24eb	0.0043073795
145	0x3d11feaa	0.035643257
146	0x3da3d856	0.08000247
147	0x3cd13474	0.025537707
148	0xbc17880f	-0.0092487475
149	0xbdcdbbb6	-0.10045569
150	0x3ced1b5f	0.028943716
151	0xbd05e5be	-0.032689802
152	0x3d946610	0.072460294
153	0xbce87260	-0.02837485
154	0x3bfeec71	0.007779651
155	0x3d159796	0.036521517
156	0x3d214333	0.039370727
157	0x3dc684d3	0.09693303
158	0x3dbd5a69	0.0924576
159	0x3c8a36cc	0.016871832
160	0x3dc32fd6	0.09530608
161	0x3d3fa3ba	0.046787
162	0xbc4091e1	-0.01175353
163	0xbd943824	-0.072372705
164	0xbdd5a640	-0.104321
165	0xbd643764	-0.055716887
166	0xbe09428a	-0.13404289
167	0x3d02d635	0.031942565
168	0xbde152ae	-0.11002098
169	0x3e040e2d	0.12896033
170	0x3d013d99	0.031552885
171	0x3dc04b0b	0.09389313
172	0x3da5c980	0.08095074
173	0xbe0f11ba	-0.13971606
174	0x3d71251c	0.05887328
175	0xbd612a43	-0.054971945
176	0x3e2a4c81	0.16630746
177	0x3d0a93b0	0.033832252
178	0x3d807f39	0.06274266
179	0x3a1567e6	0.0005699381
180	0x3d191736	0.03737565
181	0xbdb91901	-0.09037972
182	0xbe0499c7	-0.12949286
183	0xb9c99362	-0.00038447516
184	0xbd9d7572	-0.076884165
185	0xbdf3976e	-0.11894117
186	0x3d938a91	0.07204164
187	0xbd51f84e	-0.051262192
188	0xbd10e767	-0.035376932
189	0xbd523096	-0.051315866
190	0xbd4b2cf3	-0.049603414
191	0xbe01fed0	-0.1269486
192	0x3d007d4c	0.031369492
193	0xbdbbc607	-0.0916863
194	0x3de790b1	0.113068946
195	0x3d85ed14	0.0653936
196	0xbd9a144b	-0.07523402
197	0x3cb67dcd	0.022276783
198	0xbd9ac708	-0.075574934
199	0xbd8beebb	-0.068326436
200	0x3c741dca	0.01489968
201	0x3cd3ab33	0.02583847
202	0x3ce9cb98	0.028539464
203	0x3d9293fe	0.071571335
204	0x3dba3b4a	0.0909334
205	0x3dc019a5	0.09379891
206	0xbcf6bec9	-0.03012027
207	0x3d109563	0.035298716
208	0x3ddf8c2e	0.10915409
209	0x3dc12241	0.094303615
210	0x3e85d5ae	0.26139587
211	0xbe06b4eb	-0.13154952
212	0x3da2f9d7	0.079578094
213	0x3d4eb30f	0.050463732
214	0x3d409f56	0.047026955
215	0x3db13d80	0.08654308
216	0xbbaf82ee	-0.005356184
217	0x3d8ca2e5	0.06867007
218	0x3d291dd5	0.041288216
219	0x3d943c88	0.07238108
220	0xbd69c9f4	-0.057077363
221	0xbe2329df	-0.15933941
222	0x3cd36aa3	0.025807684
223	0xbd47b3dc	-0.04875551
224	0x3ca4a940	0.020100236
225	0x3d3b587d	0.045738686
226	0xbd02f0cd	-0.031967927
227	0xbdbadb38	-0.09123844
228	0xbcc7a450	-0.024370342
229	0xbe0a68fe	-0.13516614
230	0x3c4172d5	0.011807163
231	0x3c9a8045	0.018859992
232	0x3ce4cd40	0.027929902
233	0x3e440345	0.19141872
234	0xbc8226bd	-0.015887612
235	0x3a6a0715	0.0008927447
236	0x3d9bb7c5	0.07603411
237	0x3cca34d7	0.0246834
238	0x3be02d3a	0.006841329
239	0xbdcbb3c7	-0.09946399
240	0x3e379597	0.17928158
241	0xbd26b3b9	-0.04069874
242	0x3d15f087	0.036606338
243	0x3d893219	0.066990085
244	0xbcf0becc	-0.029387854
245	0xbae47caa	-0.0017432172
246	0x3a8e621a	0.0010862977
247	0xbd17a915	-0.037026484
248	0xbcfb5136	-0.030678373
249	0xbcc73d6c	-0.02432128
250	0x3dd4bb3c	0.103872746
251	0x3dc47c6b	0.09594043
252	0xbd5e9071	-0.05433697
253	0x3dbe4633	0.09290733
254	0xbdd9aa57	-0.10628193
255	0x3dda07c0	0.106460094

weight f4 [1, 64]
0	0x3dae1a6d	0.08501134
1	0x3d05c098	0.032654375
2	0x3b015e53	0.001974006
3	0x3c93b430	0.018030256
4	0x3d986035	0.07440225
5	0xbd8bb19e	-0.06820987
6	0x3c0db3e8	0.00864885
7	0xbac34206	-0.0014896996
8	0x3d8113b0	0.06302583
9	0xbd9e4645	-0.077282466
10	0x3cfa39af	0.030545084
11	0x3d8f4a61	0.069966085
12	0x3cdee88d	0.027210498
13	0x3d991468	0.07474595
14	0x3bdb4634	0.0066917185
15	0xbda8dd6e	-0.08245359
16	0x3dd341cb	0.103152834
17	0xbc6113cd	-0.013737631
18	0xbd8b28a3	-0.0679486
19	0x3c84a8da	0.016193796
20	0x3e19d6c2	0.1502333
21	0x3c78c765	0.015184258
22	0x3d92ed53	0.07174172
23	0xbdb2b4f6	-0.08725922
24	0xbd927c56	-0.071526214
25	0x3ca06244	0.019578107
26	0x3de833fa	0.11338039
27	0xbd13dc51	-0.036098782
28	0xbdbcab41	-0.092123516
29	0xbd59ab78	-0.05314204
30	0x3d84fd38	0.0649361
31	0xbd8fc7b3	-0.070205115
32	0xbcb38dd6	-0.021918219
33	0xbd1316f1	-0.03591055
34	0x3c79144b	0.015202592
35	0xbc8e9f2a	-0.01740988
36	0xbda2e2c4	-0.07953408
37	0x3ddc293d	0.10750053
38	0x3dbedd0a	0.093195036
39	0xbd9bb07b	-0.0760202
40	0xbbba19c6	-0.005679342
41	0xbd0012fb	-0.0312681
42	0xbd38e7c9	-0.045142923
43	0xbd8fa49e	-0.0701382
44	0x3d6e6190	0.05819851
45	0x3d5add4d	0.053433705
46	0x3b0d026b	0.0021516334
47	0x3e019f29	0.12658371
48	0x3d57a6bf	0.052649256
49	0x3d5ba53f	0.053624388
50	0x3d23ca67	0.039987948
51	0x3c2b9158	0.010471664
52	0x39d55e00	0.0004069656
53	0xbd895b1c	-0.06706831
54	0xbd2a6161	-0.041596774
55	0x3cf5a4b7	0.029985769
56	0x3d9806ec	0.07423195
57	0xbcb4476b	-0.022006711
58	0xbc89c8f6	-0.016819458
59	0x3b203921	0.0024448114
60	0xbdb371b5	-0.08761922
61	0xbd522a24	-0.05130972
62	0xbdac1928	-0.08403236
63	0xbd85b756	-0.06529109
